# Ultralytics YOLO11 object detection model with GCBlock backbone + EUCB neck upsampling.
#
# - Keeps GCBlock after P3/P4 backbone C3k2 blocks.
# - Replaces the two top-down nearest upsampling nodes with EUCB blocks to
#   refine upsampled features before cross-scale fusion.

nc: 5
scales:
  # [depth, width, max_channels]
  n: [0.50, 0.25, 1024]
  s: [0.50, 0.50, 1024]
  m: [0.50, 1.00, 512]
  l: [1.00, 1.00, 512]
  x: [1.00, 1.50, 512]

backbone:
  - [-1, 1, Conv, [64, 3, 2]] # 0-P1/2
  - [-1, 1, Conv, [128, 3, 2]] # 1-P2/4
  - [-1, 2, C3k2, [256, False, 0.25]]
  - [-1, 1, Conv, [256, 3, 2]] # 3-P3/8
  - [-1, 2, C3k2, [512, False, 0.25]] # 4-P3/8
  - [-1, 1, GCBlock, [512]] # 5, GC-P3
  - [-1, 1, Conv, [512, 3, 2]] # 6-P4/16
  - [-1, 2, C3k2, [512, True]] # 7-P4/16
  - [-1, 1, GCBlock, [512]] # 8, GC-P4
  - [-1, 1, Conv, [1024, 3, 2]] # 9-P5/32
  - [-1, 2, C3k2, [1024, True]] # 10
  - [-1, 1, SPPF, [1024, 5]] # 11
  - [-1, 2, C2PSA, [1024]] # 12

head:
  - [-1, 1, EUCB, [1024, 3, 2]] # 13, refined P5->P4 upsampling
  - [[-1, 8], 1, Concat, [1]] # cat enhanced backbone P4
  - [-1, 2, C3k2, [512, False]] # 15

  - [-1, 1, EUCB, [512, 3, 2]] # 16, refined P4->P3 upsampling
  - [[-1, 5], 1, Concat, [1]] # cat enhanced backbone P3
  - [-1, 2, C3k2, [256, False]] # 18 (P3/8-small)

  - [-1, 1, Conv, [256, 3, 2]]
  - [[-1, 15], 1, Concat, [1]] # cat head P4
  - [-1, 2, C3k2, [512, False]] # 21 (P4/16-medium)

  - [-1, 1, Conv, [512, 3, 2]]
  - [[-1, 12], 1, Concat, [1]] # cat head P5
  - [-1, 2, C3k2, [1024, True]] # 24 (P5/32-large)

  - [[18, 21, 24], 1, Detect, [nc]] # Detect(P3, P4, P5)
